HW2/Classifier.pth (torch, 363049 bytes, 20 tensors)

conv1.weight f4 [6, 3, 5, 5]
0.18034984 0.35641205 0.2872417 0.04827473 -0.06707713 0.29884282 0.05516444 0.15774463
-0.038316485 -0.24734399 0.14464514 0.08343551 -0.2657096 -0.17123294 -0.17933962 -0.054654885
-0.12217251 -0.28621852 -0.29655018 -0.22016428 0.09687028 -0.04697811 0.1886268 0.14691615
0.24728592 0.20267822 0.1953742 -0.05288986 0.052648515 -0.1476134 -0.05332372 -0.17723468
-0.12448457 -0.30063507 -0.26624614 -0.22394988 -0.010752154 -0.24464184 -0.22278582 -0.3282086
-0.31141022 -0.2599129 -0.40758654 -0.41965201 -0.47616175 0.07710889 -0.17344047 -0.06747357
0.00677649 -0.010945505 -0.37098143 -0.35406828 -0.3145843 -0.116669744 0.043158382 -0.26301137
-0.53629166 -0.09931351 0.16582617 0.39291358 -0.055051986 0.37596127 0.57424766 0.69587296
0.7571388 0.14007214 0.4007612 0.50496554 0.5915748 0.4660845 0.24851677 0.25938106
0.20264784 0.14625436 0.14575444 0.18725084 0.14516774 0.06432443 0.10696998 0.2784599
0.23546262 0.3104801 0.5005723 0.45034793 0.28131375 0.19944717 0.011235045 -0.17170447
-0.038042814 0.054798715 0.012640899 0.025397222 -0.08249429 -0.21237065 -0.0786243 -0.21584854
-0.23402274 -0.07633795 -0.20264214 -0.15372638 0.039608352 -0.012708178 0.008609608 0.06922133
0.0459625 0.08099584 0.17771517 0.37340537 0.2882675 0.035063375 -0.020651804 0.0034888634
-0.11548958 0.060018875 0.082608975 0.1258988 0.20095578 -0.009747496 -0.014107534 0.13509843
0.22823107 0.17006539 0.17601228 0.107362345 -0.1357997 -0.15591416 -0.029933339 0.0050797723
-0.025881058 -0.06488382 -0.13585894 -0.21951951 -0.2838815 -0.1611823 -0.293922 -0.2990583
-0.51127666 -0.60426456 -0.38467383 -0.24148321 -0.3190933 -0.28072214 -0.30273202 -0.2549436
-0.054350924 0.058484018 -0.07904618 0.054482043 -0.08542837 0.022279559 0.20720096 0.052248955
0.041432127 -0.24784963 -0.22926979 0.18683255 0.18344532 -0.19731084 -0.27671933 -0.16138017
0.19211514 0.084287696 -0.44990146 -0.095472544 -0.142225 0.12470124 -0.045104243 -0.37282974
0.09395018 -0.0627422 0.17575423 -0.18806116 -0.07272948 -0.016245766 0.0034092101 0.19779123
-0.23341325 -0.2161585 -0.1929976 -0.16495594 0.18163279 -0.13558185 -0.38992578 -0.28769538
-0.1382475 -0.022221027 -0.21520908 -0.33080417 -0.113790475 -0.011796484 -0.042195752 -0.28131345
-0.35071403 0.09996639 -0.066933736 -0.04726998 -0.40737194 -0.18173525 -0.28651056 -0.07750601
-0.15899391 -0.16634546 0.1176752 0.3104572 0.3049903 -0.16033192 -0.0067772586 0.0029146075
0.41991892 0.3941145 -0.25425714 0.1484282 0.07868148 0.6144879 0.33174834 0.024517437
0.059352335 0.18079938 0.64305377 -0.0653877 0.09388804 0.19728105 0.22504848 0.26038235
-0.036765445 0.08885251 0.041732904 0.27595347 0.07147287 -0.12928067 0.14317061 0.3005208
0.47530532 0.03065044 -0.20174542 0.28934348 0.30194482 0.24345261 -0.11951563 -0.14668193
0.30677822 0.4166696 0.083353356 0.055758704 -0.26276082 0.18415485 0.22975191 0.12594873
-0.092258334 -0.049884498 0.14517826 0.13006426 0.17600602 0.016133979 0.22582108 0.23766588
00000000: a1ad 383e a47b b63e 5811 933e b9bb 453d
00000010: bc5f 89bd ed01 993e 1cf4 613d cf87 213e
00000020: bff1 1cbd be47 7dbe db1d 143e 3de0 aa3d
00000030: 170b 88be b057 2fbe cea4 37be cddd 5fbd
00000040: 9535 fabd 3c8b 92be 6dd5 97be bf72 61be
00000050: ed63 c63d 1e6c 40bd 6227 413e 3071 163e
00000060: 8538 7d3e e18a 4f3e 2d10 483e 0aa3 58bd
00000070: f8a5 573d f827 17be f969 5abd 027d 35be
00000080: c4f1 febd d7ec 99be 6a51 88be 1e53 65be
00000090: cd29 30bc 6483 7abe f721 64be f50a a8be
000000a0: 2971 9fbe 4e13 85be 2faf d0be a1dc d6be
000000b0: 79cb f3be 44eb 9d3d 619a 31be 952f 8abd
000000c0: 510d de3b c754 33bc 47f1 bdbe 7048 b5be
000000d0: 3211 a1be 8cf0 eebd d8c6 303d 6da9 86be
000000e0: 694a 09bf e264 cbbd 56ce 293e f82b c93e
000000f0: 317e 61bd ff7d c03e e501 133f bb24 323f
00000100: d9d3 413f 126f 0f3e 9230 cd3e 6c45 013f
00000110: 7271 173f a1a2 ee3e 2e7b 7e3e 98cd 843e
00000120: ea82 4f3e b4c3 153e a740 153e afbe 3f3e
00000130: daa6 143e 87bc 833d 1413 db3d 4c92 8e3e
00000140: 1d1d 713e 3ff7 9e3e 8225 003f 0194 e63e
00000150: 5b08 903e e13b 4c3e 3213 383c 4cd3 2fbe
00000160: c8d2 1bbd 9e74 603d c61b 4f3c d60d d03c
00000170: c4f2 a8bd b177 59be c705 a1bd 6607 5dbe
00000180: a8a3 6fbe 1257 9cbd 6c81 4fbe 736a 1dbe
00000190: 5e3c 223d f635 50bc 500f 0d3c eac3 8d3d
000001a0: 2d43 3c3d 26e1 a53d f7fa 353e fd2e bf3e
000001b0: cc97 933e 9d9e 0f3d f92d a9bc 6aa5 643b
000001c0: cd85 ecbd 5ad6 753d e52e a93d 9deb 003e
000001d0: 5ac7 4d3e f6b3 1fbc 4923 67bc 3e57 0a3e
000001e0: 68b5 693e 9f25 2e3e 903c 343e cae0 db3d
000001f0: 140f 0bbe f6a7 1fbe c336 f5bc 3874 a63b
00000200: 8304 d4bc cfe1 84bd 9b1e 0bbe b9c9 60be
00000210: ea58 91be f90c 25be f27c 96be 2b1e 99be
00000220: 07e3 02bf 15b1 1abf f8f3 c4be 6047 77be
00000230: 3260 a3be d0ba 8fbe b1ff 9abe f887 82be
00000240: 139f 5ebd f08c 6f3d f7e2 a1bd 9028 5f3d
00000250: 12f5 aebd 9f83 b63c 7d2c 543e 0003 563d
00000260: bcb4 293d 4bcc 7dbe b3c5 6abe 0851 3f3e
00000270: 17d9 3b3e da0b 4abe 28ae 8dbe d840 25be
00000280: d5b9 443e 079f ac3d 7c59 e6be 1c87 c3bd
00000290: 6ea3 11be 5d63 ff3d 3abf 38bd 8ae3 bebe
000002a0: f468 c03d fc7e 80bd ebf8 333e 1b93 40be
000002b0: 32f3 94bd d715 85bc 0e6d 5f3b c989 4a3e
000002c0: e203 6fbe a758 5dbe 2aa1 45be 36ea 28be
000002d0: f2fd 393e f8d5 0abe 5aa4 c7be cf4c 93be
000002e0: c190 0dbe df08 b6bc c55f 5cbe 2a5f a9be
000002f0: fb0a e9bd 0a46 41bc 74d5 2cbd 5108 90be
00000300: ca90 b3be 2ebb cc3d 8e14 89bd 2b9e 41bd
00000310: 0e93 d0be ce18 3abe 83b1 92be 79bb 9ebd
00000320: 4dcf 22be 7756 2abe b2ff f03d 3ff4 9e3e
00000330: b027 9c3e 0d2e 24be c413 debb 0003 3f3b
00000340: 9dff d63e 60c9 c93e fe2d 82be 90fd 173e
00000350: c123 a13d 144f 1d3f ebda a93e cbd8 c83c
00000360: 6f1b 733d 7923 393e 2c9f 243f fde9 85bd
00000370: 5f48 c03d 0b04 4a3e 1c73 663e d650 853e
00000380: 5d97 16bd 4ef8 b53d 1ff0 2a3d c649 8d3e
00000390: 5e60 923d 2762 04be 519b 123e dddd 993e
000003a0: 385b f33e a216 fb3c 5a96 4ebe d424 943e
000003b0: 8398 9a3e a44b 793e 9cc4 f4bd ca33 16be
000003c0: 0912 9d3e b855 d53e 2ab5 aa3d 3d63 643d
000003d0: 9688 86be 1793 3c3e 1644 6b3e b4f8 003e
000003e0: f0f1 bcbd b053 4cbd 9ca9 143e 912f 053e
000003f0: ec3a 343e 682b 843c a43d 673e af5e 733e

conv1.bias f4 [6]
0.6861417 0.39465532 0.27341092 0.66465276 0.0031682975 0.27748868
00000000: fca6 2f3f 4310 ca3e 84fc 8b3e af26 2a3f
00000010: 36a3 4f3b ff12 8e3e

conv2.weight f4 [16, 6, 5, 5]
0.22288038 0.036140434 -0.060949642 -0.121503666 -0.16180399 0.068417095 -0.06742476 -0.058548428
-0.07980762 0.019830255 0.027454142 -0.17782134 -0.05834194 0.10018899 -0.002027317 -0.061461266
0.017897401 0.17252643 0.0824906 -0.078410864 0.07889493 0.303789 0.11202448 -0.16366917
0.06729172 0.038441546 0.019839047 0.022574725 -0.006760814 -0.03237882 -0.077113934 -0.053221118
0.026060654 -0.049000114 -0.054365065 -0.18379653 -0.10387491 -0.065962486 -0.18106642 -0.0056056725
-0.016630508 0.0155020505 0.013659029 -0.21082722 -0.020029439 0.1735618 -0.16770108 -0.1813401
-0.030074116 0.13484693 0.014746114 0.04706661 0.022719285 0.013500829 0.00059747056 0.113311924
-0.12756202 -0.029959874 0.074635826 0.00023938103 0.05836252 -0.099063575 0.03131557 0.029037068
0.015813436 0.014200138 -0.05865694 0.2484969 0.14547393 0.037851326 0.0036831568 0.1303634
0.20159417 -0.0623905 -0.0135853775 0.20305197 0.17615329 0.069226354 0.17913707 0.037380792
0.030030018 -0.03704791 0.046064354 0.1016312 -0.1022678 0.038936425 0.032088004 0.16364361
-0.026777104 -0.065587565 0.09336757 0.07911517 0.018740628 -0.1575081 0.13068597 -0.0046387003
-0.093480065 -0.048431348 0.03333707 0.17680714 -0.042962894 0.012875616 0.008438657 -0.026631935
-0.06579501 0.01758632 0.10281647 -0.10541785 -0.09571273 -0.14603801 -0.002674002 0.063992366
0.006412586 -0.017965754 -0.14819375 0.012952934 0.028702691 -0.09442996 0.013774596 -0.1989235
0.07761386 0.00052152935 -0.022749228 0.033578675 -0.11389263 -0.23193344 -0.15752077 -0.21275562
-0.16992381 0.0027753345 -0.020663943 0.0341776 -0.16129115 -0.19843052 0.020254072 0.09801243
0.047885764 -0.16542524 0.121199846 0.061005045 -0.04776101 -0.08331921 0.03252141 0.21712208
0.10033115 -0.03353923 -0.05261311 0.2496816 0.08948862 -0.1058138 -0.0753705 0.013312158
0.03206383 -0.001946027 0.07359888 -0.00051148183 -0.097135805 0.019302117 0.12859638 -0.055626005
-0.02204536 -0.08530852 0.045645475 0.014440213 -0.08866783 0.12716845 0.06565913 -0.03792785
-0.034444306 -0.10730569 0.034987286 -0.035659336 -0.091152586 0.08718138 0.012897707 0.052406184
0.051778268 -0.069632515 -0.14584574 -0.10075359 0.052306846 -0.07559247 0.106322095 0.018888222
-0.088415 0.073153906 -0.050274692 0.0831731 -0.017915845 0.029561415 -0.03771624 0.0039042975
0.09952858 0.01906158 -0.0025980289 0.010530436 -0.009698381 0.025704237 0.06661028 0.060219087
-0.057850104 -0.0156912 0.07783985 -0.08842193 -0.10835133 -0.08868921 -0.11345198 -0.0114562875
-0.11454257 -0.12086609 -0.014269655 -0.15320966 -0.0038315381 -0.0039827772 -0.017114783 0.15421729
-0.1115407 -0.09889821 0.046268113 -0.056027394 0.18479718 -0.060641848 -0.0659492 -0.09217771
0.0052894372 0.1149066 0.07828143 0.03156546 -0.027462956 -0.12186537 0.12983678 0.12346435
-0.024121158 -0.18337722 -0.26596197 0.11385666 0.14531161 0.102078214 0.014264339 -0.2554734
-0.12766978 -0.02193452 0.17629223 0.07902569 -0.06375789 -0.10467729 0.007646108 0.09734852
0.11342294 0.046022672 -0.021485385 0.054382835 0.09303023 -0.016898677 -0.07345392 0.019538568
00000000: c13a 643e fe07 143d 55a6 79bd ead6 f8bd
00000010: f2af 25be 431e 8c3d fe15 8abd 7ad0 6fbd
00000020: 2d72 a3bd 0f73 a23c 82e7 e03c cc16 36be
00000030: f5f7 6ebd e32f cd3d bcdc 04bb cfbe 7bbd
00000040: 929d 923c c5aa 303e d5f0 a83d e095 a0bd
00000050: aa93 a13d 3b8a 9b3e 176d e53d e498 27be
00000060: 3ed0 893d e274 1d3d 7f85 a23c a1ee b83c
00000070: d289 ddbb a79f 04bd e9ed 9dbd 63fe 59bd
00000080: 277d d53c 58b4 48bd e7ad 5ebd 2835 3cbe
00000090: 5ebc d4bd 5717 87bd 7a69 39be caaf b7bb
000000a0: b43c 88bc 50fc 7d3c 1fca 5f3c 17e3 57be
000000b0: c714 a4bc 2fba 313e d5b9 2bbe 38b1 39be
000000c0: fe5d f6bc 5015 0a3e af99 713c ebc8 403d
000000d0: cb1d ba3c 9532 5d3c 929f 1c3a 1510 e83d
000000e0: 9e9f 02be 696e f5bc abda 983d 5b02 7b39
000000f0: 8a0d 6f3d d8e1 cabd c144 003d 25df ed3c
00000100: 2e8b 813c b2a7 683c 4242 70bd f975 7e3e
00000110: 1ef7 143e fe09 1b3d 1e61 713b fc7d 053e
00000120: b46e 4e3e 2e8d 7fbd 3495 5ebc dbec 4f3e
00000130: 8761 343e 8cc6 8d3d b56f 373e 9a1c 193d
00000140: 8301 f63c 8dbf 17bd faad 3c3d 0524 d03d
00000150: c871 d1bd cd7b 1f3d b66e 033d 3192 273e
00000160: a85b dbbc c652 86bd 7f37 bf3d 2207 a23d
00000170: f285 993c ce49 21be 8bd2 053e 3d00 98bb
00000180: 7a72 bfbd f35f 46bd 748c 083d ee0c 353e
00000190: dcf9 2fbd 3ff4 523c 4b42 0a3c 372b dabc
000001a0: 89bf 86bd 3011 903c 7191 d23d 50e5 d7bd
000001b0: 0905 c4bd fd8a 15be 4f3e 2fbb 6e0e 833d
000001c0: ac20 d23b eb2c 93bc 1ac0 17be 8b38 543c
000001d0: e821 eb3c 7f64 c1bd d8ae 613c 9ab2 4bbe
000001e0: 04f4 9e3d 3eb7 083a 975c babc cb89 093d
000001f0: 8a40 e9bd f67f 6dbe 204d 21be 9cdc 59be
00000200: 8200 2ebe 63e2 353b 6e47 a9bc d0fd 0b3d
00000210: 8229 25be 5f31 4bbe deeb a53c beba c83d
00000220: dd23 443d 3c65 29be a037 f83d 6de0 793d
00000230: 0ca1 43bd 43a3 aabd 2c35 053d 4055 5e3e
00000240: 6b7a cd3d 6e60 09bd d880 57bd 89ac 7f3e
00000250: cf45 b73d e8b4 d8bd d95b 9abd 3d1b 5a3c
00000260: 5d55 033d d511 ffba 02bb 963d f714 06ba
00000270: 23ef c6bd 791f 9e3c c5ae 033e 18d8 63bd
00000280: 7998 b4bc 3cb6 aebd c0f6 3a3d a596 6c3c
00000290: 7b97 b5bd 7238 023e 4b78 863d 3c5a 1bbd
000002a0: 7915 0dbd 16c3 dbbd d44e 0f3d 860f 12bd
000002b0: 35ae babd 278c b23d e750 533c dea7 563d
000002c0: 7315 543d 7e9b 8ebd 9658 15be e657 cebd
000002d0: b43f 563d 3ad0 9abd 66bf d93d 79bb 9a3c
000002e0: ec12 b5bd b7d1 953d d6ec 4dbd a956 aa3d
000002f0: 40c4 92bc c82a f23c 587c 1abd 3edf 7f3b
00000300: a4d5 cb3d 0827 9c3c b143 2abb da87 2c3c
00000310: f5e5 1ebc b191 d23c f86a 883d 4aa8 763d
00000320: 3bf4 6cbd d58a 80bc 806a 9f3d 8f16 b5bd
00000330: 4de7 ddbd b0a2 b5bd 8359 e8bd 27b3 3bbc
00000340: 4c95 eabd a488 f7bd 45cb 69bc fee2 1cbe
00000350: 8b1a 7bbb f581 82bb 4d34 8cbc 23eb 1d3e
00000360: 736f e4bd 258b cabd a283 3d3d fb7c 65bd
00000370: 793b 3d3e 9663 78bd 6010 87bd abc7 bcbd
00000380: 0453 ad3b 2754 eb3d 0452 a03d c94a 013d
00000390: fef9 e0bc 8d94 f9bd eff3 043e e1da fc3d
000003a0: bc99 c5bc 3dc7 3bbe 2b2c 88be ae2d e93d
000003b0: 91cc 143e 620e d13d f9b4 693c 69cd 82be
000003c0: debb 02be 06b0 b3bc f385 343e 39d8 a13d
000003d0: 7f93 82bd 0c61 d6bd 348c fa3b a95e c73d
000003e0: 494a e83d 4582 3c3d 1e02 b0bc 89c0 5e3d
000003f0: a286 be3d 186f 8abc 026f 96bd 590f a03c

conv2.bias f4 [16]
0.05166045 0.021798944 0.10235607 0.08203284 0.22043374 -0.016248956 0.038387112 0.013127759
-0.0693805 0.06591145 -0.03184467 0.18076079 -0.064540885 0.059801783 0.037915125 0.0019345094
00000000: e899 533d b393 b23c 0fa0 d13d d500 a83d
00000010: 62b9 613e 881c 85bc ce3b 1d3d d015 573c
00000020: 5d17 8ebd 95fc 863d 8f6f 02bd 5b19 393e
00000030: 032e 84bd b7f2 743d e44c 1b3d 5d8f fd3a

fc1.weight f4 [128, 256]
0.04377844 0.0014055693 0.005616125 -0.03398297 -0.039121162 0.05235586 0.07265928 0.009359613
0.0036175288 0.05550492 0.03649687 -0.010133099 -0.06774477 -0.026827108 0.06209229 -0.0021906807
0.04106347 0.05472366 -0.026293166 0.034342878 0.022213798 0.04773299 0.047903035 0.054855976
-0.07722076 0.014351715 0.039647225 -0.016137384 -0.028656173 0.0014935506 -0.052379765 0.023991782
0.0576487 0.07064247 0.005039697 0.012266349 0.0950064 -0.06923242 -0.024822287 -0.048487477
0.12279743 -0.018006938 0.057697985 0.07331163 0.027680548 -0.05510835 -0.018086353 0.010291947
-0.06369844 -0.06129039 -0.015668778 0.05792826 -0.031970967 -0.06758408 -0.07918849 0.033953376
-0.013691679 -0.030451776 -0.0354568 -0.02882638 0.019240707 -0.06416393 0.080703124 -0.001134042
-0.0118021965 -0.018247778 0.03765333 0.0008485456 0.061359353 0.030459955 0.059372548 -0.06385706
0.03626502 -0.0048298254 -0.04186094 0.043451622 0.0016781471 0.03515339 -0.031089185 0.053976446
0.07908974 -0.056138337 0.032285217 -0.05365989 0.022097988 -0.016669104 0.033841252 0.02661157
-0.1173354 -0.03956358 -0.0006195921 0.01880013 -0.0072668386 0.041293398 0.013714833 0.009538584
0.056931667 0.039852884 -2.3998233e-05 -0.033798825 0.05835719 0.021527037 -0.056300264 0.052594505
-0.019958692 -0.032852504 0.0027179145 0.033695932 -0.030219091 -0.013451443 0.063027 -0.03950004
-0.0054769847 0.040615443 -0.041868422 -0.010094156 -0.024429264 0.059002347 -0.02555352 0.081604645
-0.030933771 0.040076207 -0.041349802 -0.041956913 0.0032331843 0.09379999 0.006453905 -0.03794367
0.0019174891 0.059982054 0.003151985 0.014164877 -0.050676364 0.028368615 -0.029938439 0.004628312
-0.09683768 -0.068231456 0.0021130024 -0.013026494 -0.02181872 -0.03892989 0.10183114 0.09423361
-0.06436777 -0.0033330848 0.019392869 -0.000108573266 -0.09493207 -0.0706711 -0.03774102 0.0019968064
0.07389565 0.035991106 -0.058338173 -0.0684694 0.069994666 0.09282841 0.05906338 0.014511825
-0.11908101 -0.06672557 0.052587476 0.051383484 -0.044121463 0.06292284 0.095150955 -0.054240435
-0.028853875 -0.010648164 0.06626811 -0.04785817 0.0470887 -0.03668237 0.03708368 0.0012610342
-0.009411012 0.02348226 0.082557485 0.001128005 0.03900027 0.03432812 0.006439811 0.071869224
-0.06290735 -0.04491019 0.0029152245 0.0126924245 -0.05852422 0.06169235 -0.035450067 0.0873332
-0.024549374 0.093689606 0.026150431 0.108992875 0.0030108483 0.0036999509 0.07618087 -0.011370852
-0.0011658918 0.06609641 -0.01556631 -0.0994615 -0.0071058674 0.0031778642 0.0576377 -0.018584942
0.04682952 0.025712658 -0.055567354 -0.041418526 0.096306644 0.06442399 -0.059421606 -0.010280757
-0.0019926978 -0.026647279 -0.036117695 0.06267842 -0.02540264 -0.006422699 -0.03898254 0.0032229468
0.07280533 0.09388913 0.0012949434 0.003506036 0.04865495 -0.0029010195 -0.09860383 -0.056916267
0.018477654 -0.004185201 -0.07325724 0.081735335 0.012720523 -0.054482955 -0.04430296 0.040937353
-0.070498 -0.021960313 0.023904936 -0.010335158 0.031908073 -0.01725732 0.013252403 -0.0421967
-0.09622083 0.043620247 0.106257826 0.10318692 -0.015134883 0.06475069 0.092871785 0.06709193
00000000: 0651 333d 143b b83a 7907 b83b ba31 0bbd
00000010: 833d 20bd 1973 563d 63ce 943d 1059 193c
00000020: 1014 6d3b 2159 633d be7d 153d 4c05 26bc
00000030: c5bd 8abd 86c4 dbbc 7c54 7e3d 8691 0fbb
00000040: 2b32 283d eb25 603d c464 d7bc 1eab 0c3d
00000050: b6f9 b53c ab83 433d f935 443d a9b0 603d
00000060: eb25 9ebd 7523 6b3c 2165 223d 8c32 84bc
00000070: 5ac0 eabc 3ec3 c33a 2a8c 56bd 6a8a c43c
00000080: 0b21 6c3d 00ad 903d 0b24 a53b ccf8 483c
00000090: b792 c23d bac9 8dbd 1c58 cbbc ce9a 46bd
000000a0: 387d fb3d 4983 93bc b954 6c3d 6824 963d
000000b0: 51c2 e23c 4bb9 61bd d529 94bc 8e9f 283c
000000c0: 5474 82bd a20b 7bbd cf5b 80bc 2f46 6d3d
000000d0: fdf3 02bd 8669 8abd 932d a2bd b212 0b3d
000000e0: 1053 60bc 0176 f9bc 263b 11bd 4d25 ecbc
000000f0: b09e 9d3c 6168 83bd ae47 a53d 23a4 94ba
00000100: 005e 41bc 5d7c 95bc 613a 1a3d ee70 5e3a
00000110: f253 7b3d 2887 f93c a130 733d 7ec7 82bd
00000120: a18a 143d 8343 9ebb 6176 2bbd 54fa 313d
00000130: 46f5 db3a 00fd 0f3d bfae febc 6816 5d3d
00000140: cdf9 a13d 50f1 65bd 813d 043d 79ca 5bbd
00000150: d706 b53c a58d 88bc 209d 0a3d 8200 da3c
00000160: 8b4d f0bd 6c0d 22bd 1f6c 22ba bb02 9a3c
00000170: a91e eebb 4423 293d 2eb4 603c b947 1c3c
00000180: 2e31 693d c73c 233d d04f c9b7 a370 0abd
00000190: f307 6f3d 7859 b03c 1b9b 66bd 566d 573d
000001a0: 6980 a3bc 5990 06bd 0a1f 323b bf04 0a3d
000001b0: 078e f7bc 7163 5cbc 4d14 813d cbca 21bd
000001c0: 4778 b3bb 615c 263d 397e 2bbd f561 25bc
000001d0: e11f c8bc 72ac 713d 9e55 d1bc 5620 a73d
000001e0: d268 fdbc f326 243d 695e 29bd 03db 2bbd
000001f0: d5e3 533b 361a c03d 477b d33b d26a 1bbd
00000200: 4254 fb3a beaf 753d 8891 4e3b cd13 683c
00000210: 0592 4fbd 4c65 e83c 7541 f5bc 18a9 973b
00000220: d552 c6bd efbc 8bbd 4c7a 0a3b 136d 55bc
00000230: 2cbd b2bc f374 1fbd d88c d03d 8dfd c03d
00000240: 40d3 83bd e26f 5abb cbdd 9e3c d4b1 e3b8
00000250: bf6b c2bd 02bc 90bd 5496 1abd dadc 023b
00000260: 9a56 973d 696b 133d 02f4 6ebd af39 8cbd
00000270: 5d59 8f3d d21c be3d 71ec 713d 01c3 6d3c
00000280: bfe0 f3bd 6aa7 88bd f765 573d 7d77 523d
00000290: b5b8 34bd b1dd 803d 81de c23d 382b 5ebd
000002a0: f65e ecbc a375 2ebc 93b7 873d ee06 44bd
000002b0: 15e0 403d 4140 16bd 0fe5 173d 4949 a53a
000002c0: a530 1abc de5d c03c e613 a93d 91d9 933a
000002d0: bfbe 1f3d a59b 0c3d 0d05 d33b 2c30 933d
000002e0: 92d5 80bd bff3 37bd 5a0d 3f3b e3f3 4f3c
000002f0: 18b7 6fbd 1eb1 7c3d 1734 11bd c0db b23d
00000300: c51b c9bc 56e0 bf3d 6e39 d63c a837 df3d
00000310: a751 453b e07a 723b b704 9c3d cf4c 3abc
00000320: d6d0 98ba 8e5d 873d d609 7fbc 79b2 cbbd
00000330: 56d8 e8bb b743 503b 8215 6c3d 733f 98bc
00000340: 50d0 3f3d 5aa3 d23c 989a 63bd 79a6 29bd
00000350: 6b3c c53d baf0 833d 1264 73bd 9f70 28bc
00000360: ec97 02bb 654b dabc 26f0 13bd 8b5d 803d
00000370: 3319 d0bc 8175 d2bb 28ac 1fbd 1338 533b
00000380: f61a 953d f248 c03d 17bb a93a 86c5 653b
00000390: 6a4a 473d 081f 3ebb cef0 c9bd 0821 69bd
000003a0: 735e 973c 0324 89bb e407 96bd db64 a73d
000003b0: be69 503c 8529 5fbd 0577 35bd edad 273d
000003c0: 4161 90bd 1de6 b3bc 49d4 c33c cb54 29bc
000003d0: 0ab2 023d 395f 8dbc 9b20 593c 72d6 2cbd
000003e0: 6d0f c5bd 25ab 323d b49d d93d aa53 d33d
000003f0: 4df8 77bc 029c 843d 9033 be3d 7e67 893d

fc1.bias f4 [128]
0.035938084 0.06002916 -0.07030761 -0.0042089364 -0.0061148144 -0.0807548 0.027804999 0.053805158
0.025794895 0.03540928 -0.001394437 0.008049548 -0.019009084 -0.015303071 0.04084986 0.02557771
0.011665754 -0.06143868 0.047813535 -0.030810434 0.034524865 0.03532249 0.040342562 -0.0006062456
0.072038606 0.07046784 0.011179634 -0.008479665 0.014927434 0.041035604 0.048076794 -0.017605593
-0.027674122 0.020197488 0.01774644 0.015475035 0.037844133 0.014990683 -0.020047083 0.021930004
-0.03841818 0.064502865 -0.010328173 0.004628735 -0.044634413 0.065463066 0.06672091 0.047507424
0.028635345 0.075436436 0.029708007 -0.06862523 0.036948565 -0.033252858 -0.07060232 0.05778083
0.018866025 -0.05193926 -0.023062028 -0.010839294 -0.046991177 -0.026479552 -0.010290257 -0.0021637427
0.02149772 0.06126673 -0.033300895 0.0475839 0.07304977 -0.0075563504 0.08478541 0.003677822
0.022228878 0.0020134284 0.030787878 -0.022359192 0.07539042 0.063302375 0.015591479 0.04755377
-0.031917997 0.1014883 0.030799786 0.024235334 0.010809889 0.027222352 -0.0011374537 0.04041087
0.03249218 0.014701043 -0.0076511363 -0.05413419 -0.033323802 0.038626585 0.06482462 -0.0026408695
0.036491938 0.0025403346 0.025881318 0.10213765 0.0934195 0.06222897 0.12502815 0.024607848
0.083673425 0.109330624 0.048444234 -0.05825735 -0.037614625 -0.030423092 0.028671652 -0.019416591
0.0018062894 -0.014937739 -0.050318282 0.055059448 0.041145828 0.0017727669 0.05928859 -0.000900081
0.061515305 0.06773428 0.011612466 -0.10712676 -0.0680526 -0.006488644 0.031909883 0.07094032
00000000: d033 133d 23e1 753d 70fd 8fbd 1eeb 89bb
00000010: c85e c8bb c662 a5bd 4fc7 e33c cc62 5c3d
00000020: d14f d33c 5209 113d 8bc5 b6ba 40e2 033c
00000030: f0b8 9bbc bbb9 7abc 2f52 273d 5888 d13c
00000040: b821 3f3c 20a7 7bbd 20d8 433d 2a66 fcbc
00000050: f269 0d3d 51ae 103d 3e3e 253d 74ec 1eba
00000060: fa88 933d 7151 903d c92a 373c 4bee 0abc
00000070: 3292 743c f314 283d 2cec 443d 9b39 90bc
00000080: d7b4 e2bc 3475 a53c fb60 913c 008b 7d3c
00000090: 7302 1b3d 7b9b 753c c839 a4bc 8da6 b33c
000000a0: 625c 1dbd 141a 843d 7f37 29bc a5ac 973b
000000b0: 93d2 36bd 8011 863d f9a4 883d 2597 423d
000000c0: ac94 ea3c 6b7e 9a3d 355e f33c 628b 8cbd
000000d0: 6157 173d 2634 08bd f397 90bd 97ab 6c3d
000000e0: ec8c 9a3c 43be 54bd 94ec bcbc 4b97 31bc
000000f0: d279 40bd a5eb d8bc 7798 28bc 94cd 0dbb
00000100: fd1b b03c d3f2 7a3d 8566 08bd 56e7 423d
00000110: 1e9b 953d 439b f7bb f9a3 ad3d 9d07 713b
00000120: 5619 b63c b9f3 033b dc36 fc3c a02a b7bc
00000130: 4b66 9a3d ada4 813d 6773 7f3c bec7 423d
00000140: 72bc 02bd 19d9 cf3d d54f fc3c 2e89 c63c
00000150: f61b 313c 6901 df3c 9d16 95ba de85 253d
00000160: 8516 053d a5dc 703c 62b6 fabb d0bb 5dbd
00000170: 8a7e 08bd e936 1e3d c5c2 843d 7012 2dbb
00000180: 9278 153d be7b 263b 0f05 d43c 8b2d d13d
00000190: b952 bf3d cee3 7e3d 6107 003e 6696 c93c
000001a0: f95c ab3d bce8 df3d 766d 463d 429f 6ebd
000001b0: cb11 1abd d939 f9bc d0e0 ea3c 8b0f 9fbc
000001c0: 04c1 ec3a 6bbd 74bc 8b1a 4ebd 0486 613d
000001d0: 8788 283d 305c e83a 98d8 723d 6af3 6bba
000001e0: 79f7 7b3d 45b8 8a3d 3642 3e3c 4665 dbbd
000001f0: 295f 8bbd b19e d4bb f0b3 023d 2949 913d

fc2.weight f4 [64, 128]
-0.07366122 0.04179245 -0.1318746 -0.052892286 -0.027323324 0.119370066 0.045243982 0.07999369
-0.05339333 -0.00082721154 -0.022366673 0.052054204 -0.0075160526 0.0009321164 0.082380176 -0.0027797797
0.033933554 -0.064218424 -0.037598282 -0.03180382 0.060858157 -0.019070176 0.01755019 -0.15331693
0.0781799 0.057694536 -0.018390989 0.0844654 -0.018337002 0.01567034 0.010408455 -0.12457211
-0.005402346 0.07286565 0.0077987905 -0.04768588 -0.0636793 0.19496053 -0.033015553 -0.08471688
-0.019902611 0.049065918 -0.09617524 -0.13244078 0.016638428 0.10635117 0.095274724 0.01220814
0.014411088 0.15238564 -0.10817473 -0.013858911 0.031665444 -0.12127829 0.0118591655 0.06426859
-0.09148825 -0.16793177 -0.12546219 0.05655287 -0.1466435 0.037395906 -0.089001715 0.09365005
0.11577945 -0.034507155 0.12988077 0.10980196 0.19211152 0.082327396 -0.20829654 0.058496974
-0.12110132 0.031314097 -0.07112108 -0.024989605 -0.05895794 -0.019590022 -0.13972549 0.004282476
0.014814008 0.088503845 -0.088422336 0.12453089 0.18714899 0.09434089 -0.06348376 -0.012576718
0.008991282 0.011234153 -0.01468907 -0.026734522 0.05074975 0.11859989 -0.04410273 0.12097969
0.11518006 -0.039244957 0.084653415 -0.03823236 -0.00030802595 0.013994108 0.06382043 -0.09612364
0.061985478 0.16965619 -0.029301522 0.04098696 -0.083406314 -0.11244285 0.067091584 -0.08235193
-0.08962327 0.04573283 -0.04420404 -0.14710365 -0.054565933 0.14259657 -0.034225304 -0.009583408
-0.055229023 0.07010446 -0.06733943 -0.07493832 0.016330155 0.14463915 -0.0024958057 0.058254212
0.12486954 0.019156363 -0.017507756 0.063209794 0.11685341 -0.124964304 -0.06710452 -0.10554549
0.03147119 -0.1798673 0.031167997 -0.17403693 0.1712589 0.15055391 -0.09632081 -0.23971982
-0.254087 -0.06347254 0.103518024 0.13515052 -0.018700112 2.2764221e-05 -0.016204465 -0.13029534
0.020448692 0.056667306 -0.16637123 -0.017401718 0.018512487 -0.031407498 -0.05008611 0.13909948
0.016845895 -0.030625185 0.12408274 0.13215494 0.18046506 0.15072402 -0.011004046 0.06720772
-0.09022678 -0.19004454 -0.00031194682 0.051233742 -0.12859994 -0.0119961165 -0.04687699 0.034712467
-0.09490619 0.16755141 -0.009476162 -0.043151066 -0.022335935 0.055541832 0.011626242 -0.20950194
0.0006021198 0.083777055 -0.060276296 0.04687933 -0.012634664 -0.0032846883 0.09714302 -0.03678135
-0.1116748 -0.05877281 0.11753203 0.031951707 -0.1359792 0.008888981 0.104041934 -0.03587246
0.09460845 -0.014284979 -0.014611896 -0.13913743 -0.00072013686 -0.07377413 0.12258745 0.1062228
0.074021704 0.1480497 -0.07351331 0.035351846 0.02941461 -0.20604777 0.1461814 -0.053883113
0.0701711 0.05991346 0.10595115 -0.08723271 0.0023945442 -0.050479673 0.03714328 0.18685307
-0.21150489 0.014766322 0.050598584 -0.15525289 -0.09777023 -0.026420552 0.07425433 0.035470705
0.18353254 0.0495472 0.0648768 0.040229723 0.10920483 0.11056538 -0.11279947 0.033028837
-0.028362557 -0.057857495 0.14961268 0.033117566 0.021318493 0.036413107 0.14679635 -0.100492224
-0.01431887 -0.06479978 0.061262902 0.122661166 -0.10112947 -0.08134221 -0.06915015 -0.0025088913
00000000: b2db 96bd 8f2e 2b3d 230a 07be 95a5 58bd
00000010: 2ad5 dfbc 4b78 f43d c151 393d bbd3 a33d
00000020: f7b2 5abd 3ad9 58ba 503a b7bc ca36 553d
00000030: 3849 f6bb 4659 743a f0b6 a83d f72c 36bb
00000040: e9fd 0a3d f384 83bd a800 1abd b944 02bd
00000050: 6746 793d 0f39 9cbc 6bc5 8f3c 1dff 1cbe
00000060: c91c a03d 1b51 6c3d b3a8 96bc 32fc ac3d
00000070: 7b37 96bc 165f 803c 3988 2a3c aa1f ffbd
00000080: 2a06 b1bb 963a 953d ff8c ff3b 4552 43bd
00000090: 4b6a 82bd bca3 473e 513b 07bd 0b80 adbd
000000a0: cd0a a3bc 58f9 483d 86f7 c4bd 8e9e 07be
000000b0: 504d 883c a4ce d93d 651f c33d a704 483c
000000c0: 7c1c 6c3c fb0a 1c3e b68a ddbd 7c10 63bc
000000d0: a0b3 013d c160 f8bd f24c 423c 409f 833d
000000e0: 315e bbbd 4ef6 2bbe 2979 00be fba3 673d
000000f0: b729 16be 732c 193d 8846 b6bd 99cb bf3d
00000100: c71d ed3d 6057 0dbd 77ff 043e dadf e03d
00000110: e2b8 443e 449b a83d b04b 55be 869a 6f3d
00000120: f803 f8bd 3643 003d eea7 91bd 00b7 ccbc
00000130: e27d 71bd 417b a0bc 3314 0fbe 0354 8c3b
00000140: 74b6 723c 8141 b53d c516 b5bd 0d0a ff3d
00000150: fca3 3f3e cc35 c13d c603 82bd 940e 4ebc
00000160: 2c50 133c 740f 383c 6daa 70bc 5b02 dbbc
00000170: f8de 4f3d 80e4 f23d 10a5 34bd 33c4 f73d
00000180: 86e3 eb3d 52bf 20bd c55e ad3d 8999 1cbd
00000190: 8b7e a1b9 8b47 653c 49b4 823d 79dc c4bd
000001a0: 7ce4 7d3d 5aba 2d3e bf09 f0bc f1e1 273d
000001b0: eed0 aabd 7048 e6bd 5067 893d 21a8 a8bd
000001c0: 688c b7bd 5952 3b3d 4c0f 35bd 57a2 16be
000001d0: 8780 5fbd d604 123e d52f 0cbd ba03 1dbc
000001e0: d437 62bd ed92 8f3d 41e9 89bd 4379 99bd
000001f0: d1c6 853c 491c 143e ac90 23bb f89b 6e3d
00000200: 9abb ff3d ceed 9c3c 6d6c 8fbc 2374 813d
00000210: d750 ef3d 49ed ffbd 186e 89bd 3c28 d8bd
00000220: efe7 003d 222f 38be 0754 ff3c bd36 32be
00000230: 7e5e 2f3e ce2a 1a3e d843 c5bd 1d79 75be
00000240: b117 82be e4fd 81bd 4201 d43d e664 0a3e
00000250: fa30 99bc cbf5 be37 3abf 84bc 246c 05be
00000260: 0484 a73c fa1b 683d 385d 2abe 0c8e 8ebc
00000270: 80a7 973c 26a5 00bd 1827 4dbd 1870 0e3e
00000280: 6700 8a3c abe1 fabc 171f fe3d a053 073e
00000290: d5cb 383e 6657 1a3e 504a 34bc 33a4 893d
000002a0: d1c8 b8bd 099b 42be cb8c a3b9 79da 513d
000002b0: b4af 03be 5c8b 44bc 1602 40bd a92e 0e3d
000002c0: 2d5e c2bd 9992 2b3e e741 1bbc 2cbf 30bd
000002d0: daf9 b6bc d57f 633d fe7b 3e3c ad87 56be
000002e0: 93d7 1d3a 4e93 ab3d 47e4 76bd 8a04 403d
000002f0: 9f01 4fbc ed43 57bb ebf2 c63d 0aa8 16bd
00000300: c2b5 e4bd c2bb 70bd a2b4 f03d cbdf 023d
00000310: 223e 0bbe 17a3 113c f013 d53d 00ef 12bd
00000320: 13c2 c13d 8b0b 6abc bc66 6fbc 0b7a 0ebe
00000330: 91c7 3cba e416 97bd 210f fb3d 578b d93d
00000340: b198 973d 579a 173e 258e 96bd 19cd 103d
00000350: e8f6 f03c 30fe 52be 94b0 153e 8ab4 5cbd
00000360: deb5 8f3d d167 753d ebfc d83d 10a7 b2bd
00000370: c9ed 1c3b c6c3 4ebd 8d23 183d 6956 3f3e
00000380: bd94 58be 72ee 713c 7640 4f3d 9dfa 1ebe
00000390: c23b c8bd ea6f d8bc a712 983d bb49 113d
000003a0: f4ef 3b3e 01f2 4a3d 21de 843d ecc7 243d
000003b0: c8a6 df3d 1a70 e23d 6903 e7bd 3f49 073d
000003c0: 9858 e8bc fbfb 6cbd 1134 193e 49a6 073d
000003d0: 1fa4 ae3c e925 153d c851 163e dece cdbd
000003e0: b299 6abc bfb5 84bd cfee 7a3d c735 fb3d
000003f0: f81c cfbd bf96 a6bd 989e 8dbd 366c 24bb

fc2.bias f4 [64]
0.122008264 -0.020991541 -0.00070455397 -0.051961962 0.031140624 0.05399741 -0.03488939 -0.015789686
0.032514945 -0.038478825 -0.044193834 -0.034877554 0.07159016 0.11147738 0.12659758 -0.019109253
0.03819544 -0.10288416 0.090365976 -0.014156201 0.0050290404 -0.028836904 0.050425954 -0.015375314
0.09415406 0.045487635 -0.03262733 -0.08351326 -0.01628964 0.17526367 -0.071279414 0.057396572
0.03945414 -0.08427066 0.049166158 -0.011032169 0.063192345 0.14980969 -0.0034596086 0.08345378
-0.0255383 0.047032073 0.119661435 0.0505422 0.06777501 0.040583923 0.05953789 0.05907999
0.0061017307 0.13287479 -0.08103084 0.12831907 0.06553771 0.07408735 0.10655007 0.0031746125
0.09137289 -0.043815583 0.1239143 0.022108978 0.060361896 0.04160085 0.09121329 -0.07558176
00000000: 78df f93d 74f6 abbc d1b1 38ba 11d6 54bd
00000010: 9f1a ff3c 632c 5d3d 2de8 0ebd 5f59 81bc
00000020: 642e 053d f99b 1dbd 9804 35bd c4db 0ebd
00000030: dd9d 923d 414e e43d cca2 013e 028b 9cbc
00000040: d272 1c3d eeb4 d2bd cc11 b93d 69ef 67bc
00000050: a6ca a43b 5f3b ecbc 728b 4e3d bee8 7bbc
00000060: d8d3 c03d 3e51 3a3d 3ca4 05bd 0009 abbd
00000070: da71 85bc 5278 333e f1fa 91bd ab18 6b3d
00000080: aa9a 213d 1996 acbd 7462 493d 45c0 34bc
00000090: fd6a 813d b667 193e 9aba 62bb d1e9 aa3d
000000a0: b235 d1bc b4a4 403d 0e11 f53d 5705 4f3d
000000b0: a0cd 8a3d 543b 263d 01de 733d dcfd 713d
000000c0: 07f1 c73b 5410 083e 7ff3 a5bd 1366 033e
000000d0: a338 863d 1cbb 973d ec36 da3d 290d 503b
000000e0: b621 bb3d f877 33bd c8c6 fd3d e31d b53c
000000f0: 093e 773d a765 2a3d 09ce ba3d 9cca 9abd

fc3.weight f4 [10, 64]
-0.29703826 0.31848863 0.028123185 -0.0013621063 0.2060818 -0.17661786 -0.0066741537 0.031764764
-0.11244633 -0.033777084 -0.27487254 0.20898545 0.45508087 -0.05121066 -0.19178994 -0.011164784
0.11168613 0.17967692 0.3613597 -0.27602604 0.12738554 -0.18065472 0.36670282 0.12457205
-0.08798085 0.3780961 0.008374436 0.044706006 -0.392879 -0.110685945 0.022438493 -0.042592768
-0.3624847 0.14014556 -0.41331714 0.12116684 0.15424973 -0.13829647 -0.12631644 -0.08794433
-0.16945627 -0.03642465 -0.043181475 -0.21676041 -0.32723698 0.27775314 -0.11949954 0.38927287
0.12346213 0.20881449 0.03442428 -0.1913244 -0.2333943 0.12811708 0.09467891 0.30157396
-0.16438885 0.31929964 -0.065838605 0.053857386 -0.019400418 -0.5486064 -0.18274604 -0.084987685
0.32033223 -0.41423288 0.0035192382 -0.15319647 0.039241318 -0.11109325 0.03745933 -0.13482141
-0.043640144 -0.0678032 0.042226736 0.06749748 0.10331996 -0.049294364 -0.16189964 0.06385486
0.0719943 -0.16682792 0.15813793 -0.14419557 -0.21841086 0.124405995 -0.2725929 0.021168606
-0.048697554 -0.18225913 0.07701826 -0.15340306 0.25187674 0.49240002 -0.112892434 -0.0663609
0.5077529 -0.025779674 0.12751639 -0.045411658 -0.14800003 0.42792845 -0.076821685 -0.45745873
-0.52784884 0.06610899 0.4136435 -0.120666675 -0.07122745 0.15044898 -0.25886473 -0.07872173
0.065954536 0.21895084 0.04929417 0.38059622 -0.3816685 0.13612135 0.18132532 -0.018319894
0.21099457 -0.0432914 -0.15429695 0.18089171 0.14663085 -0.13632365 0.15693688 0.036049347
-0.3730143 -0.35784185 0.041680094 0.104879044 0.46093386 0.19191433 -0.09312924 0.41231212
-0.31271988 -0.024692912 -0.29010624 0.34244326 -0.04971599 -0.020218467 0.022536263 -0.1394147
0.09127732 -0.33679676 -0.18787208 0.099279374 0.17746715 -0.0083531365 -0.5979218 0.009941827
-0.36180577 0.4035517 0.13648455 0.035112325 -0.13375841 0.47819242 -0.11072358 -0.052986473
0.024642384 0.30872303 -0.02554969 0.28385615 -0.3889383 -0.3249999 0.13301466 0.10380182
0.10749781 0.086501054 0.30533144 0.27047563 0.16956317 0.28948334 0.19442298 -0.088064596
-0.3475672 -0.2760395 -0.122109696 -0.37310395 -0.06025482 -0.026293203 0.058145054 -0.30119222
-0.3969703 0.09063521 0.42766613 -0.08178253 0.14578766 -0.08714792 0.0062509617 -0.0878093
-0.07353726 -0.3476142 0.14500295 -0.15689315 -0.37184918 -0.10828488 0.010960473 -0.537627
0.14404638 0.02735882 0.34491208 0.093947634 -0.17276613 0.12541547 0.02263241 -0.10559261
-0.10405915 0.43122151 -0.34037882 -0.0967614 -0.24179214 0.10039694 0.02951756 0.09740289
-0.05148596 0.18297152 -0.3567263 0.34356788 -0.124512434 0.35154954 0.021351833 -0.1018037
-0.40885568 -0.13162541 -0.14816177 -0.277379 0.2336887 -0.04311723 -0.067638144 -0.46939403
0.16808003 -0.101620756 0.0017469309 -0.20824037 0.0306629 0.01911018 -0.023612928 -0.13383025
0.06857293 0.15127155 0.12963705 -0.038124714 0.5530058 0.08522435 0.34067112 -0.0043524173
-0.15889336 -0.08022953 0.32784635 0.2562945 -0.2458583 0.237526 -0.32807443 0.08555017
00000000: 6615 98be f110 a33e 9862 e63c b488 b2ba
00000010: 1b07 533e 50db 34be dcb2 dabb c51b 023d
00000020: 434a e6bd d759 0abd 18bc 8cbe 4800 563e
00000030: 5c00 e93e 45c2 51bd 9564 44be 80ec 36bc
00000040: b3bb e43d 3afd 373e 2304 b93e 4953 8dbe
00000050: 5b71 023e 8dfd 38be 79c0 bb3e a21f ff3d
00000060: 4e2f b4bd d095 c13e ee34 093c a51d 373d
00000070: 7027 c9be 50af e2bd eed0 b73c c175 2ebd
00000080: 9897 b9be 5182 0f3e 4e9e d3be 5226 f83d
00000090: a4f3 1d3e 979d 0dbe 1959 01be 281c b4bd
000000a0: f285 2dbe 0432 15bd 0fdf 30bd 71f6 5dbe
000000b0: 9b8b a7be a935 8e3e 2dbc f4bd c64e c73e
000000c0: b7d9 fc3d 77d3 553e 7900 0d3d 8bea 43be
000000d0: eafe 6ebe 2031 033e 04e7 c13d e767 9a3e
000000e0: 8d55 28be 3e7b a33e 64d6 86bd 9099 5c3d
000000f0: a0ed 9ebc 7871 0cbf c721 3bbe 060e aebd
00000100: 9602 a43e 5516 d4be 05a3 663b 89df 1cbe
00000110: 81bb 203d dc84 e3bd f46e 193d a00e 0abe
00000120: 02c0 32bd 67dc 8abd f1f5 2c3d 1e3c 8a3d
00000130: 6a99 d33d e3e8 49bd 05c9 25be 56c6 823d
00000140: bf71 933d f0d4 2abe e9ee 213e 01a8 13be
00000150: 19a7 5fbe 92c8 fe3d 4c91 8bbe c969 ad3c
00000160: 1677 47bd 23a2 3abe c0bb 9d3d b115 1dbe
00000170: fdf5 803e db1b fc3e 2634 e7bd 39e8 87bd
00000180: 18fc 013f e52f d3bc a893 023e 9301 3abd
00000190: 528d 17be 7019 db3e b054 9dbd 0838 eabe
000001a0: 1a21 07bf 2664 873d 15c9 d33e 1720 f7bd
000001b0: b3df 91bd 4c0f 1a3e eb89 84be dc38 a1bd
000001c0: 2c13 873d a634 603e afe8 493d 82dd c23e
000001d0: 0e6a c3be 6563 0b3e 58ad 393e 9a13 96bc
000001e0: f60e 583e 5352 31bd 0500 1ebe ad3b 393e
000001f0: 6626 163e 6d98 0bbe 10b4 203e 7ba8 133d
00000200: bbfb bebe 0c37 b7be bfb8 2a3d d3ca d63d
00000210: 86ff eb3e 3185 443e 8bba bebd 931a d33e
00000220: d21c a0be ca48 cabc ce88 94be b954 af3e
00000230: fea2 4bbd 33a1 a5bc f89d b83c bac2 0ebe
00000240: 9bef ba3d a070 acbe 8a61 40be fc52 cb3d
00000250: f3b9 353e 98db 08bc 6711 19bf 0be3 223c
00000260: 9b3e b9be 549e ce3e 9bc2 0b3e f1d1 0f3d
00000270: f7f7 08be a3d5 f43e 0bc3 e2bd 5808 59bd
00000280: d3de c93c f210 9e3e 954d d1bc 9855 913e
00000290: ec22 c7be 6366 a6be ff34 083e 0c96 d43d
000002a0: d027 dc3d 7727 b13d 6754 9c3e c87b 8a3e
000002b0: f8a1 2d3e 2937 943e d116 473e 365b b4bd
000002c0: 54f4 b1be 0d55 8dbe a614 fabd 7b07 bfbe
000002d0: c2cd 76bd d864 d7bc 8229 6e3d de35 9abe
000002e0: b13f cbbe f49e b93d 0ef7 da3e 997d a7bd
000002f0: 5c49 153e 9c7a b2bd ded4 cc3b 5dd5 b3bd
00000300: b49a 96bd 7dfa b1be a77b 143e 99a8 20be
00000310: 0463 bebe 77c4 ddbd 8e93 333c eca1 09bf
00000320: e580 133e 9b1f e03c 5198 b03e 9e67 c03d
00000330: 9be9 30be ea6c 003e 9b67 b93c f040 d8bd
00000340: f71c d5bd 11c9 dc3e 2246 aebe d72a c6bd
00000350: 5c98 77be e99c cd3d cfce f13c 2b7b c73d
00000360: f1e2 52bd e35c 3b3e d4a4 b6be 21e8 af3e
00000370: 6000 ffbd 4dfe b33e 0aea ae3c 757e d0bd
00000380: 8855 d1be d0c8 06be b8b7 17be 9f04 8ebe
00000390: 174c 6f3e b19b 30bd de85 8abd 6a54 f0be
000003a0: 2c1d 2c3e 8b1e d0bd 46f9 e43a f73c 55be
000003b0: c330 fb3c f48c 9c3c e66f c1bc cc0a 09be
000003c0: f76f 8c3d eee6 1a3e 93bf 043e a928 1cbd
000003d0: ca91 0d3f 1b8a ae3d 726c ae3e b99e 8ebb
000003e0: f1b4 22be 614f a4bd 7adb a73e 0839 833e
000003f0: 47c2 7bbe 043a 733e 5ff9 a7be ed34 af3d

fc3.bias f4 [10]
-0.019685011 0.064495176 0.037724428 -0.057588942 -0.16020015 -0.11860959 -0.053794723 -0.019077893
-0.14963177 -0.004938212
00000000: 7642 a1bc 0c16 843d ee84 1a3d 62e2 6bbd
00000010: 820b 24be 96e9 f2bd db57 5cbd 3e49 9cbc
00000020: 1239 19be bad0 a1bb

momentum_buffer f4 [6, 3, 5, 5]
-0.056023948 -0.071992576 -0.07988194 -0.07591127 -0.087983645 -0.038033392 -0.03835669 -0.020421946
-0.043206766 -0.05610983 -0.03344796 -0.049549162 -0.03170399 -0.03772462 -0.04812384 -0.015302512
-0.013045045 -0.002416905 -0.010828829 -0.004772278 -0.028182121 0.024832785 0.013493355 0.022160674
-0.0009096181 -0.034963094 -0.050062582 -0.05567433 -0.064914405 -0.0785735 -0.016946327 -0.018587206
0.0024561204 -0.022050552 -0.03697032 -0.008385274 -0.025331782 -0.0065993806 -0.014451943 -0.030971976
0.003996567 0.0062617036 0.018235842 0.0064493027 0.0070609986 -0.008631948 0.038839392 0.022758275
0.02692172 -0.0008056355 -0.037757657 -0.045575704 -0.05271356 -0.058003012 -0.07543104 -0.024206724
-0.01961547 -0.0009781865 -0.021155994 -0.041743472 -0.017873298 -0.03569234 -0.020194914 -0.02148198
-0.03179218 -0.009055376 -0.00435841 0.010102165 0.0039142603 0.008324133 -0.014986938 0.039378848
0.021093862 0.030856885 0.008057313 0.007683713 -0.010468012 -0.020057827 -0.022020012 -0.026454091
-0.003336904 -0.020813428 -0.016077705 -0.019357968 -0.018823674 -0.0068590436 -0.021277718 -0.017243309
-0.022434194 -0.021769825 -0.012935163 -0.013349828 -0.011187997 -0.01133527 -0.021791503 0.009341151
0.005095724 -0.0060029407 -0.013306094 -0.0025170194 0.015622947 -0.00039353187 -0.015994156 -0.012926874
-0.014670013 0.0048518376 -0.013782313 -0.00966511 -0.008004831 -0.012493096 0.00077684876 -0.011416129
-0.009295298 -0.025810696 -0.025569133 -0.008487685 -0.00063586095 -0.0055637513 -0.013663628 -0.024755908
0.0144833345 0.010271275 -0.007816199 -0.020925533 -0.016890774 0.021353181 0.0027873102 -0.012836748
-0.017244853 -0.020756852 0.007747496 -0.009868838 0.0015883198 -0.0030865225 -0.0152054345 0.0017916337
-0.011707508 -0.010648793 -0.028653536 -0.03028574 -0.011454602 0.0005141101 -0.009426659 -0.019696612
-0.028263684 0.01636605 0.015447277 -0.006150104 -0.02062262 -0.02182592 -0.017083688 0.0008173026
0.024687465 6.513926e-05 0.0042582285 0.006462016 0.024110738 0.024029527 0.01959752 0.010426302
-0.00446573 0.024886271 0.037185766 0.033064175 0.033500273 -0.0027830396 0.020504288 0.040042575
0.055699904 0.051217176 -0.00425749 0.03528577 0.029207822 0.055460043 0.037873156 -0.012648145
0.0042257477 0.021235563 -0.0013876972 0.007887506 0.005456069 0.02370863 0.015664307 0.015982285
0.012765877 -0.006295571 0.026243888 0.02268845 0.025479719 0.032513153 8.261576e-05 0.021814749
0.029030016 0.04447688 0.038429942 0.004159683 0.037080407 0.02073254 0.043263007 0.028736632
-0.008352331 0.010338058 0.02617789 0.0023950785 0.01255114 0.0132215 0.037238643 0.023562646
0.023269666 0.02154845 0.010407021 0.044664845 0.035440877 0.039372638 0.045683816 0.019562757
0.045726154 0.04971547 0.052995253 0.04140496 0.025556002 0.055037424 0.038597308 0.046240017
0.021081192 0.056292288 0.06767376 0.035885666 0.056749687 0.053650457 0.038524307 0.046638694
0.03654412 0.04921565 0.03618118 0.017187223 0.020135533 0.0065489104 0.03866651 0.034738123
0.011024867 0.0075361165 0.020446528 0.037795916 0.031397033 -0.008064811 -0.007263165 -0.013699118
0.023269013 0.03156418 0.028903486 0.03862539 0.009066843 0.03252244 0.024830896 0.0096899
00000000: 5e79 65bd d870 93bd 2499 a3bd 5e77 9bbd
00000010: c530 b4bd e7c8 1bbd e81b 1dbd ed4b a7bc
00000020: 94f9 30bd 6cd3 65bd ba00 09bd 10f4 4abd
00000030: 0bdc 01bd 2285 1abd 811d 45bd 63b7 7abc
00000040: e2ba 55bc f064 1ebb 676b 31bc c560 9cbb
00000050: 31de e6bc 206e cb3c 3c13 5d3c 4d8a b53c
00000060: 7073 6eba 7635 0fbd 6c0e 4dbd c40a 64bd
00000070: d8f1 84bd 25eb a0bd 06d3 8abc 3244 98bc
00000080: ddf6 203b 5ca3 b4bc 316e 17bd 6362 09bc
00000090: 9984 cfbc 9e3f d8bb d8c7 6cbc f1b8 fdbc
000000a0: a2f5 823b fa2e cd3b 5563 953c ac54 d33b
000000b0: f35f e73b 046d 0dbc 0e16 1f3d 906f ba3c
000000c0: f08a dc3c 4831 53ba c6a7 1abd 97ad 3abd
000000d0: 2dea 57bd 9194 6dbd 977b 9abd 2e4d c6bc
000000e0: 9fb0 a0bc 7e36 80ba 564f adbc 34fb 2abd
000000f0: 066b 92bc 2232 12bd ce6f a5bc fafa afbc
00000100: 8438 02bd 005d 14bc fed0 8ebb 8d83 253c
00000110: 3243 803b f261 083c c68b 75bc b74b 213d
00000120: 09cd ac3c 94c7 fc3c d202 043c a8c7 fb3b
00000130: 0682 2bbc 5050 a4bc 5063 b4bc 40b6 d8bc
00000140: f6af 5abb ec80 aabc 64b5 83bc 9a94 9ebc
00000150: 1b34 9abc d4c1 e0bb 9c4e aebc d741 8dbc
00000160: eac7 b7bc a256 b2bc 02ee 53bc 3db9 5abc
00000170: dc4d 37bc 91b7 39bc 1884 b2bc a10b 193c
00000180: 08fa a63b 51b4 c4bb ce01 5abc 94f4 24bb
00000190: 64f7 7f3c f452 ceb9 2d06 83bc 3dcb 53bc
000001a0: 7f5a 70bc 2afc 9e3b 36cf 61bc 695a 1ebc
000001b0: b226 03bc d8af 4cbc 70a5 4b3a b70a 3bbc
000001c0: 4e4b 18bc f470 d3bc 5c76 d1bc ee0f 0bbc
000001d0: e8af 26ba 2150 b6bb 69dd 5fbc e7cc cabc
000001e0: 824b 6d3c da48 283c 840f 00bc 066c abbc
000001f0: 855e 8abc deec ae3c 4eab 363b 3951 52bc
00000200: 1445 8dbc 460a aabc b5de fd3b e8b0 21bc
00000210: 2b2f d03a 4147 4abb 3720 79bc 40d5 ea3a
00000220: d9d0 3fbc 4678 2ebc d2ba eabc cd19 f8bc
00000230: 15ac 3bbc 58c5 063a 4672 1abc ca5a a1bc
00000240: 3e89 e7bc 1812 863c 9316 7d3c d086 c9bb
00000250: c5f0 a8bc 46cc b2bc 17f3 8bbc 4040 563a
00000260: 5e3d ca3c 609b 8838 9c88 8b3b 52bf d33b
00000270: e283 c53c 92d9 c43c fa8a a03c 15d3 2a3c
00000280: 4255 92bb 4bde cb3c 1a50 183d 4d6e 073d
00000290: 9537 093d a863 36bb 9cf8 a73c af03 243d
000002a0: 9525 643d 1ac9 513d 6a82 8bbb d087 103d
000002b0: 3e45 ef3c 122a 633d e220 1b3d 2a3a 4fbc
000002c0: 2478 8a3b 34f6 ad3c 64e3 b5ba 993a 013c
000002d0: d3c8 b23b 9a38 c23c 6f52 803c 48ed 823c
000002e0: f827 513c 144b cebb 6cfd d63c 21dd b93c
000002f0: d8ba d03c 832c 053d 0042 ad38 d8b4 b23c
00000300: 5bd0 ed3c 642d 363d b768 1d3d f34d 883b
00000310: a0e1 173d 4ad7 a93c 8d34 313d 1669 eb3c
00000320: 37d8 08bc f560 293c 0473 d63c c0f6 1c3b
00000330: 4ca3 4d3c fe9e 583c 8c87 183d 7306 c13c
00000340: 07a0 be3c 6086 b03c 3682 2a3c 7cf2 363d
00000350: 742a 113d 3445 213d f41e 3b3d 1342 a03c
00000360: 594b 3b3d 73a2 4b3d 8d11 593d 3f98 293d
00000370: d25a d13c ec6e 613d 3618 1e3d 2c66 3d3d
00000380: 77b2 ac3c be92 663d 8a98 8a3d d9fc 123d
00000390: 5c72 683d 95c0 5b3d aacb 1d3d 3708 3f3d
000003a0: 4aaf 153d 5996 493d b832 143d 38cc 8c3c
000003b0: 46f3 a43c 3e98 d63b c660 1e3d 9049 0e3d
000003c0: a5a1 343c 87f1 f63b 7a7f a73c e4cf 1a3d
000003d0: 2d9a 003d 4522 04bc d8ff edbb 4472 60bc
000003e0: a89e be3c 7149 013d 01c7 ec3c a835 1e3d
000003f0: 198d 143c 4036 053d 2a6a cb3c 63c2 1e3c

momentum_buffer f4 [6]
-0.059655257 0.05925404 0.059882008 -0.039927755 -0.043091126 -0.026992925
00000000: 1259 74bd 5db4 723d d646 753d 498b 23bd
00000010: 5280 30bd 4420 ddbc

momentum_buffer f4 [16, 6, 5, 5]
-0.021689044 -0.042637527 -0.049275994 -0.031176623 -0.02106813 -0.05623568 -0.067967854 -0.054575536
-0.044326227 -0.031596676 -0.05662511 -0.05191169 -0.04940038 -0.033889774 -0.02933625 -0.027939
-0.025301736 -0.04294987 -0.04036797 -0.021402363 -0.038260635 -0.058184348 -0.06276169 -0.048917282
-0.04769241 -0.048363954 -0.05246523 -0.03895827 -0.03408214 -0.046252124 -0.03136762 -0.037665665
-0.030042466 -0.031382322 -0.041868094 -0.011966532 -0.035633083 -0.034643166 -0.041436654 -0.046373516
-0.024965353 -0.029863264 -0.031743295 -0.04405901 -0.03745959 -0.067890525 -0.042945653 -0.025493471
-0.023096867 -0.016985796 -0.027024597 -0.025087472 -0.037813116 -0.031851724 -0.02634994 -0.039607376
-0.029765371 -0.038284563 -0.028346058 -0.033977937 -0.036804363 -0.020531636 -0.041060146 -0.026405668
-0.025956677 -0.028321547 -0.020063195 -0.03531174 -0.02075925 -0.034708127 -0.03932511 -0.04376498
-0.03724403 -0.031048294 -0.030739903 -0.047508232 -0.061686326 -0.052829243 -0.049775235 -0.04547105
-0.03808978 -0.04572229 -0.041896813 -0.040407144 -0.048296656 -0.011653416 -0.029426109 -0.027182702
-0.032770306 -0.045812268 -0.023637524 -0.03602238 -0.039213937 -0.040496334 -0.05473014 -0.056235105
-0.042105336 -0.03419803 -0.035957515 -0.038324896 -0.010374304 -0.011331129 -0.01772063 -0.026297517
-0.021717658 -0.005782422 -0.017465722 -0.013190201 -0.011774717 -0.016474754 -0.013911051 -0.021770032
-0.027648605 -0.025225276 -0.016192032 -0.031006673 -0.012271335 -0.0047173314 -0.0015155182 -0.0004267888
-0.04701469 -0.021721415 -0.0022804448 -0.004052722 -0.016082129 -0.014077889 -0.003936853 -0.0066201943
-0.008620609 -0.0158871 -0.018113034 -0.019448917 -0.023644812 -0.025464727 -0.0043908246 -0.03609829
-0.029359283 -0.02880526 -0.02403842 -0.011597105 -0.052537628 -0.01269299 -0.020934474 -0.02546155
-0.008471852 -0.027622018 -0.02624271 -0.043577824 -0.03175302 -0.022908062 -0.028681722 -0.040877853
-0.054733735 -0.05613953 -0.049522817 -0.031701684 -0.047178566 -0.05024983 -0.05831731 -0.042410895
-0.043868758 -0.048203316 -0.045421224 -0.034719817 -0.014901033 -0.054107863 -0.051317453 -0.037356965
-0.02391855 -0.018472822 -0.049019143 -0.040691085 -0.03610807 -0.020020906 -0.014987019 -0.030326057
-0.028175559 -0.017540857 -0.0030902245 -0.014474967 -0.04822543 -0.036564887 -0.030418405 -0.0074779727
-0.0094516575 -0.04824467 -0.032421414 -0.02696956 -0.036333665 -0.042178623 -0.023032717 -0.0064060907
-0.026207052 -0.02850762 -0.02393889 -0.003570829 0.0055621327 -0.014757177 -0.026598256 -0.03665616
-0.01539126 -0.020365236 -0.026746336 -0.019071087 -0.00683535 -0.016436774 -0.029686635 -0.031662364
-0.026454352 -0.0039526043 -0.023946771 -0.034545366 -0.029523354 -0.014616402 0.002228913 -0.02995577
-0.033838157 -0.013255037 -0.015534504 0.004182854 -0.036952134 -0.008799416 -0.020035688 -0.014614919
-0.0017326744 -0.059412066 -0.04029435 -0.032572344 -0.026366368 -0.019058598 -0.045782447 -0.029838756
-0.0046962355 0.006049552 -0.0030157801 -0.045282137 -0.023699358 0.0034332308 0.015908264 -0.005690003
-0.03711236 -0.010788099 -0.0033731195 0.005975091 -0.012416615 -0.016498748 0.0026932126 -0.0032096077
-0.007584211 -0.03229201 0.0009816906 -0.00060983666 -0.006482925 -0.0003433068 -0.0036602016 -0.0029032822
00000000: 39ad b1bc b0a4 2ebd a0d5 49bd 1e66 ffbc
00000010: 1297 acbc 6257 66bd bb32 8bbd 998a 5fbd
00000020: 6b8f 35bd 846b 01bd bbef 67bd 5aa1 54bd
00000030: 0e58 4abd 01d0 0abd 9352 f0bc 54e0 e4bc
00000040: 9645 cfbc 34ec 2fbd e258 25bd 0254 afbc
00000050: 2fb7 1cbd b652 6ebd 3389 80bd 7d5d 48bd
00000060: 1e59 43bd 4819 46bd c8e5 56bd b592 1fbd
00000070: b799 0bbd de72 3dbd 557b 00bd 5047 1abd
00000080: 9e1b f6bc c08a 00bd e17d 2bbd 460f 44bc
00000090: fff3 11bd fee5 0dbd 7bb9 29bd 28f2 3dbd
000000a0: 2484 ccbc cea3 f4bc 4205 02bd 3877 34bd
000000b0: 3a6f 19bd 300a 8bbd c8e7 2fbd afd7 d0bc
000000c0: a435 bdbc cc25 8bbc b062 ddbc 3e84 cdbc
000000d0: ede1 1abd f476 02bd d4db d7bc 583b 22bd
000000e0: 82d6 f3bc 46d0 1cbd fe35 e8bc 732c 0bbd
000000f0: 2cc0 16bd f631 a8bc af2e 28bd b350 d8bc
00000100: 19a3 d4bc 9702 e8bc 925b a4bc 0ba3 10bd
00000110: 4d0f aabc 1c2a 0ebd 5e13 21bd e842 33bd
00000120: 328d 18bd fe58 febc 40d2 fbbc fe97 42bd
00000130: cdaa 7cbd 7a63 58bd 1ee1 4bbd da3f 3abd
00000140: 0704 1cbd 4c47 3bbd fe9b 2bbd f681 25bd
00000150: b7d2 45bd f8ed 3ebc 060f f1bc 42ae debc
00000160: 283a 06bd a5a5 3bbd 7ba3 c1bc 348c 13bd
00000170: cb9e 20bd 7cdf 25bd b62c 60bd c856 66bd
00000180: a576 2cbd 3c13 0cbd 3048 13bd 91fa 1cbd
00000190: fcf8 29bc 33a6 39bc db2a 91bc e46d d7bc
000001a0: 3be9 b1bc 797a bdbb 4614 8fbc b61b 58bc
000001b0: beea 40bc 10f6 86bc 2deb 63bc 1157 b2bc
000001c0: 547f e2bc 3da5 cebc 27a5 84bc b501 febc
000001d0: b60d 49bc d893 9abb 5aa4 c6ba a0c2 dfb9
000001e0: 7a92 40bd 1cf1 b1bc 8473 15bb b2cc 84bb
000001f0: abbe 83bc f2a6 66bc b700 81bb 37ee d8bb
00000200: 743d 0dbc aa25 82bc c961 94bc 5653 9fbc
00000210: c4b2 c1bc 679b d0bc e8e0 8fbb cddb 13bd
00000220: e182 f0bc 02f9 ebbc 38ec c4bc c901 3ebc
00000230: b231 57bd 42f6 4fbc c67e abbc be94 d0bc
00000240: 86cd 0abc 9247 e2bc f4fa d6bc a97e 32bd
00000250: 740f 02bd b0a9 bbbc eef5 eabc 896f 27bd
00000260: 7b30 60bd 90f2 65bd 70d8 4abd a0d9 01bd
00000270: 503e 41bd c4d2 4dbd 22de 6ebd 0cb7 2dbd
00000280: baaf 33bd d770 45bd 9b0b 3abd 5e36 0ebd
00000290: 7623 74bc 35a0 5dbd 4032 52bd 9e03 19bd
000002a0: d6f0 c3bc 5154 97bc 4cc8 48bd b2ab 26bd
000002b0: 0ee6 13bd e202 a4bc 1d8c 75bc 5a6e f8bc
000002c0: 6ed0 e6bc d8b1 8fbc 5d85 4abb 6928 6dbc
000002d0: 0788 45bd 10c5 15bd 0530 f9bc c809 f5bb
000002e0: 20db 1abc 349c 45bd 51cc 04bd 44ef dcbc
000002f0: 9cd2 14bd 7ec3 2cbd 1caf bcbc 2fea d1bb
00000300: 2cb0 d6bc d088 e9bc 7e1b c4bc 9204 6abb
00000310: 8d42 b63b 16c8 71bc 96e4 d9bc c524 16bd
00000320: a02b 7cbc ffd4 a6bc 221b dbbc f83a 9cbc
00000330: 12fb dfbb 6aa6 86bc 6331 f3bc 65b0 01bd
00000340: ccb6 d8bc d984 81bb 052c c4bc 717f 0dbd
00000350: f6da f1bc a279 6fbc f412 123b ce65 f5bc
00000360: e199 0abd a82b 59bc 6f84 7ebc 5310 893b
00000370: 1f5b 17bd 6d2b 10bc e221 a4bc 6a73 6fbc
00000380: e81a e3ba 115a 73bd b00b 25bd 946a 05bd
00000390: 48fe d7bc c720 9cbc 6086 3bbd 6870 f4bc
000003a0: e1e2 99bb 523b c63b 65a4 45bb c379 39bd
000003b0: 2825 c2bc 0e00 613b 0c52 823c 3473 babb
000003c0: 2103 18bd 91c0 30bc 8e0f 5dbb b2ca c33b
000003d0: 0f6f 4bbc 6228 87bc 9c80 303b 4858 52bb
000003e0: f984 f8bb a044 04bd 12ac 803a 72dd 1fba
000003f0: b76e d4bb dcfd b3b9 fedf 6fbb fe44 3ebb
